app/src/main/assets/model/cifar10.tflite (tflite, 867520 bytes, 14 tensors)

sequential/conv2d/Conv2D f4 [6]
0	0x00000000	0.0
1	0x00000000	0.0
2	0x00000000	0.0
3	0x00000000	0.0
4	0x00000000	0.0
5	0x00000000	0.0

sequential/conv2d_1/Conv2D1 f4 [16]
0	0x00000000	0.0
1	0x00000000	0.0
2	0x00000000	0.0
3	0x00000000	0.0
4	0x00000000	0.0
5	0x00000000	0.0
6	0x00000000	0.0
7	0x00000000	0.0
8	0x00000000	0.0
9	0x00000000	0.0
10	0x00000000	0.0
11	0x00000000	0.0
12	0x00000000	0.0
13	0x00000000	0.0
14	0x00000000	0.0
15	0x00000000	0.0

sequential/conv2d/Conv2D3 f4 [6]
0	0x00000000	0.0
1	0x00000000	0.0
2	0x00000000	0.0
3	0x00000000	0.0
4	0x00000000	0.0
5	0x00000000	0.0

sequential/conv2d_1/Conv2D5 f4 [16]
0	0x00000000	0.0
1	0x00000000	0.0
2	0x00000000	0.0
3	0x00000000	0.0
4	0x00000000	0.0
5	0x00000000	0.0
6	0x00000000	0.0
7	0x00000000	0.0
8	0x00000000	0.0
9	0x00000000	0.0
10	0x00000000	0.0
11	0x00000000	0.0
12	0x00000000	0.0
13	0x00000000	0.0
14	0x00000000	0.0
15	0x00000000	0.0

arith.constant f4 [6]
0	0x00000000	0.0
1	0x00000000	0.0
2	0x00000000	0.0
3	0x00000000	0.0
4	0x00000000	0.0
5	0x00000000	0.0

arith.constant1 f4 [5, 5, 3, 6]
0	0xbc84e680	-0.016223192
1	0xbcb31f58	-0.021865532
2	0xbcb1e6f8	-0.02171658
3	0x3d0a2018	0.033722013
4	0x3cefd2d8	0.029275343
5	0xbe1339b8	-0.14377487
6	0xbca36a80	-0.019948244
7	0x3a976100	0.0011549294
8	0xbdbcd2e3	-0.09219911
9	0x3a50e400	0.0007968545
10	0x3bfc56a0	0.007700756
11	0x3e06ef38	0.13177192
12	0xbc833328	-0.016015604
13	0x3e129e34	0.14318162
14	0xbdd55d32	-0.10418166
15	0x3dfeeca8	0.12447482
16	0xbc890de8	-0.016730264
17	0x3dc16610	0.09443295
18	0xbdb5dfe2	-0.08880593
19	0xbe00958d	-0.12557049
20	0xbdc643c7	-0.09680896
21	0x3e047b98	0.12937772
22	0xbe020b1e	-0.12699553
23	0x3b4a61c0	0.0030881017
24	0xbc6a9360	-0.0143173635
25	0x3d6d8a4c	0.05799322
26	0x3dbf3970	0.09337127
27	0xbda7aec7	-0.08187633
28	0xbd09bb38	-0.03362581
29	0xbe22fd07	-0.15916835
30	0xbe18ff11	-0.1494105
31	0x3d1921e0	0.03738582
32	0x3d60cf04	0.054884925
33	0xbd656f02	-0.05601407
34	0x3c1e5a90	0.0096651465
35	0x3e143104	0.14471823
36	0x3dfcad60	0.12337756
37	0x3af38f80	0.0018582195
38	0xbe20d423	-0.15705924
39	0x3da22132	0.07916488
40	0xbe06ffa3	-0.13183455
41	0x3ddaa574	0.10676089
42	0x3d95a630	0.073070884
43	0x3d6277e0	0.055290103
44	0x3dd2239c	0.10260698
45	0xbe107df3	-0.14110546
46	0xbca943e0	-0.020662248
47	0xbdc8d96d	-0.09807096
48	0x3d7cdd14	0.061734274
49	0xbdd2436a	-0.102667645
50	0x3dfeeaf8	0.124471605
51	0xbd15ca98	-0.03657016
52	0x3e25e098	0.16198957
53	0x3dd6d1d4	0.1048924
54	0xbd88e4df	-0.06684279
55	0xbd0ea17c	-0.034821972
56	0x3d5164c4	0.05112149
57	0xbcf67e08	-0.030089393
58	0x3d9a687a	0.075394586
59	0xbb848560	-0.00404422
60	0x3d141514	0.036152914
61	0x3e09240a	0.13392654
62	0xbb8c59c0	-0.00428316
63	0x3e12dc9c	0.14341968
64	0xbd53110e	-0.051529936
65	0x3db3b414	0.087745816
66	0xbbe8aa80	-0.0071004033
67	0x3de1bc4c	0.11022243
68	0xbde616c2	-0.112348095
69	0xbd54de54	-0.05196984
70	0x3d9b8da4	0.07595375
71	0xbd9e9b95	-0.07744519
72	0x3c3d6b40	0.011561215
73	0x3e19a99c	0.15006107
74	0xbe08879e	-0.13332984
75	0x3db3ea94	0.087849766
76	0x3d74b43c	0.059742197
77	0x3dda2038	0.106506765
78	0x3df8e460	0.12152934
79	0x3e267e78	0.16259181
80	0xbd2a7a46	-0.041620515
81	0xbe0e556d	-0.13899775
82	0xbd812631	-0.063061126
83	0x3c8500b8	0.016235694
84	0x3e0b0a02	0.13578036
85	0x3d9fe78c	0.07807836
86	0xbe24dbd2	-0.1609948
87	0x3cb98870	0.022648066
88	0xbe162d6b	-0.14665763
89	0xbd1fb3b4	-0.038989738
90	0xbc2e71f0	-0.010647282
91	0xbdcb6918	-0.099321544
92	0xbd144120	-0.03619492
93	0x3d8f740a	0.070045546
94	0x3d84486c	0.06459126
95	0xbcfcaee0	-0.030845106
96	0x3d8236ae	0.063580856
97	0x3d715e04	0.05892755
98	0xbc3ddcc0	-0.011588275
99	0x3d53f304	0.05174543
100	0xbd1f8ae0	-0.0389508
101	0x3d5a1614	0.05324371
102	0xbc76b6d0	-0.015058234
103	0x3d991c40	0.074760914
104	0x3e1ea5f0	0.15492988
105	0xbdb2f74c	-0.087385744
106	0xbdb4b6bd	-0.08823917
107	0xbca865c8	-0.020556346
108	0x3d824dd8	0.06362504
109	0xbc8d2080	-0.017227411
110	0xbd872f16	-0.06600778
111	0x3d83a8f0	0.06428707
112	0xbdae8c3f	-0.085228436
113	0x3d319124	0.043351308
114	0x3d35ed38	0.044415683
115	0xbe1dfd5d	-0.15428682
116	0xbdc6d81d	-0.09709189
117	0xbd8afdec	-0.06786713
118	0xbd003498	-0.031300157
119	0xbda5b1e6	-0.08090572
120	0xbe1f807a	-0.15576354
121	0x3e23850c	0.15968722
122	0xbddabb51	-0.10680259
123	0xbdd73956	-0.10508983
124	0x3d04920c	0.032365844
125	0x3d7279c8	0.05919817
126	0xbe019442	-0.12654212
127	0xbdab0b73	-0.08351793
128	0xbe0923a4	-0.13392502
129	0x3c92ca88	0.01791884
130	0x3d1f72a0	0.038927674
131	0x3c4e33a0	0.012585551
132	0x3dbf5b6c	0.09343609
133	0xbd81e094	-0.06341663
134	0xbd481b72	-0.0488543
135	0xbe051057	-0.12994514
136	0x3ddfa640	0.109203815
137	0xbe05dc4a	-0.13072315
138	0x3dddeca0	0.10836148
139	0x3e0afb30	0.13572383
140	0x3dd27620	0.10276437
141	0x3d4bc038	0.04974386
142	0xbc6faba0	-0.014628321
143	0x3d9fcbc4	0.07802537
144	0xbe0ea4ef	-0.13930105
145	0xbd287e94	-0.04113634
146	0x3d86fd58	0.0659129
147	0xbd0f593c	-0.03499721
148	0xbc58ffd0	-0.013244584
149	0x3db48cd4	0.08815923
150	0x3d4de240	0.050264597
151	0xbc210cd0	-0.009829715
152	0xbd8470e6	-0.06466846
153	0x3e0b0f22	0.13579991
154	0x3cabb6f0	0.020961255
155	0x3df02750	0.11726248
156	0x3d32afdc	0.043624744
157	0x3dbcc230	0.09216726
158	0x3db700b8	0.08935684
159	0xbe205faa	-0.15661493
160	0xbd9aef58	-0.075651824
161	0x3a061700	0.00051151216
162	0x3cc08750	0.023502022
163	0xbdf5a42e	-0.119942054
164	0x3d6a7348	0.057238847
165	0x3d57981c	0.052635297
166	0xbd8207da	-0.06349154
167	0x3cc74110	0.024323016
168	0x3e105e96	0.14098582
169	0x3dccf618	0.10007876
170	0xbc641a10	-0.013922229
171	0x3dcff3b8	0.101539075
172	0x3d1f07c0	0.03882575
173	0x3d7630b8	0.060105056
174	0x3d5c42d8	0.053774685
175	0x3db2b56c	0.0872601
176	0x3e23c7bc	0.15994161
177	0xbe06e48a	-0.13173118
178	0x3cc78d00	0.024359226
179	0xbca41330	-0.02002868
180	0x3ce8bce8	0.02841039
181	0xbde9a866	-0.114090726
182	0xbddf239d	-0.108954646
183	0x3be31c20	0.006930843
184	0x3cc165e8	0.023608163
185	0xbda78a72	-0.08180703
186	0x3e0bed50	0.13664746
187	0x3dd75cf4	0.10515776
188	0xbdbcd8be	-0.09221028
189	0xbdd6fbe0	-0.1049726
190	0xbcd9ec70	-0.026602
191	0xbd6522a0	-0.055941224
192	0x3cbe0ae0	0.023198545
193	0x3e13ad12	0.1442149
194	0xbe0360ff	-0.1282997
195	0x3e0c25b6	0.1368626
196	0x3d453da0	0.048154473
197	0xbe0708ed	-0.13186999
198	0x3dac2d88	0.08407122
199	0x3dd80a2c	0.10548815
200	0xbe2605a1	-0.16213085
201	0xbe23edfd	-0.16008754
202	0xbbf3bac0	-0.007438034
203	0xbdfbefce	-0.123015985
204	0x3d9bf656	0.07615344
205	0x3c269a60	0.010168642
206	0x3d840e16	0.06447999
207	0x3ddada08	0.106861174
208	0xbdb4fcb1	-0.088372596
209	0x3d8cb428	0.068702996
210	0x3cbb44c0	0.022859931
211	0xbd584cec	-0.052807733
212	0x3d603d44	0.054745927
213	0xbcf425b0	-0.029803127
214	0x3e028476	0.12745842
215	0x3b540c80	0.0032356083
216	0xbc1a0a50	-0.009401873
217	0x3d661d20	0.05618012
218	0x3da5db4c	0.08098468
219	0xbd894342	-0.067022815
220	0xbd450638	-0.048101634
221	0x3d13e4a8	0.036106735
222	0x3e15d458	0.14631784
223	0x3d98e3e8	0.07465345
224	0x3d25cc10	0.040477812
225	0x3e13d054	0.1443494
226	0x3df8671c	0.121290416
227	0xbdb72556	-0.08942668
228	0x3e011e9e	0.12609336
229	0x3df877ac	0.121322006
230	0xbe1909d3	-0.14945154
231	0x3e2588c4	0.16165453
232	0xbd94854f	-0.07251989
233	0x3d890214	0.066898495
234	0xbd172878	-0.03690383
235	0x3d05e3e0	0.03268802
236	0x3e157142	0.14593986
237	0x3dd775cc	0.10520515
238	0x3daf29ee	0.08552919
239	0xbe0161a5	-0.12634905
240	0xbda52fee	-0.080657825
241	0xbbe934a0	-0.007116869
242	0x3e229766	0.15878066
243	0x3da19adc	0.07890865
244	0xbe083cce	-0.13304445
245	0x3b0ca440	0.0021460205
246	0xbe244450	-0.16041684
247	0x3d055040	0.032547235
248	0x3dd5da28	0.10442001
249	0xbd81f33c	-0.063452214
250	0x3d334d30	0.043774784
251	0x3db2dd88	0.0873366
252	0x3d0a2734	0.033728793
253	0x3df73464	0.120705396
254	0x3dd355d4	0.10319105
255	0x3dba9c18	0.09111804

arith.constant2 f4 [16]
0	0x00000000	0.0
1	0x00000000	0.0
2	0x00000000	0.0
3	0x00000000	0.0
4	0x00000000	0.0
5	0x00000000	0.0
6	0x00000000	0.0
7	0x00000000	0.0
8	0x00000000	0.0
9	0x00000000	0.0
10	0x00000000	0.0
11	0x00000000	0.0
12	0x00000000	0.0
13	0x00000000	0.0
14	0x00000000	0.0
15	0x00000000	0.0

arith.constant3 f4 [5, 5, 6, 16]
0	0x3d633e9c	0.05547963
1	0xbd588e4b	-0.052870076
2	0xbd4dabeb	-0.050212782
3	0xbc2aa3f0	-0.010415062
4	0xbd8cfd42	-0.068842426
5	0x3d6a54c0	0.05720973
6	0x3d190108	0.0373545
7	0x3d982bf4	0.074302584
8	0x3d5dbf88	0.054137737
9	0x3c7e1fd0	0.015510514
10	0x3c6c2650	0.014413431
11	0xbc9c0998	-0.019047543
12	0xbdc29b3c	-0.09502265
13	0xbcea9704	-0.028636463
14	0x3d65e1a4	0.05612339
15	0xbc99dcb0	-0.01878199
16	0xbda0f870	-0.07859886
17	0xbcbbfcf8	-0.022947773
18	0xbdd14780	-0.10218716
19	0x3d84ce04	0.06484607
20	0xbcb75a40	-0.022381902
21	0x3db2f29a	0.08737679
22	0x3d2ef344	0.042712465
23	0x3dcc43b6	0.09973852
24	0x3c87de7c	0.016585581
25	0xbdc66426	-0.096870705
26	0x3da44254	0.080204636
27	0x3b773720	0.0037722066
28	0x3da4afa8	0.08041316
29	0x3d84a9ec	0.064777225
30	0x3db69eee	0.08917032
31	0xbdb33663	-0.08750608
32	0x3b38acc0	0.002817914
33	0x3db14564	0.08655813
34	0x3bef4ac0	0.007302612
35	0xbcdd9bc8	-0.027051821
36	0xbdb5a1e9	-0.088687725
37	0x3cda1e80	0.026625872
38	0xbdc24e5d	-0.09487603
39	0xbd950981	-0.07277203
40	0x3c6496e8	0.0139519945
41	0xbd392a40	-0.04520631
42	0xbd921bb8	-0.07134193
43	0x3d2342e0	0.0398587
44	0xbd946ab8	-0.072469175
45	0x3ae4bdc0	0.001745157
46	0x3cc2b410	0.023767501
47	0xbd265d0a	-0.040616073
48	0x3d16308c	0.03666739
49	0x3dc4ed7c	0.09615609
50	0xbca0cccc	-0.019628905
51	0xbc8f6000	-0.017501831
52	0x3d4e2a90	0.05033356
53	0x3d499450	0.049213707
54	0x3d3733f8	0.044727296
55	0x3daa1cc6	0.08306269
56	0xbcbeba2c	-0.023282133
57	0xbc90c864	-0.017673679
58	0x3d9147ee	0.070937976
59	0x3d0c630c	0.034274146
60	0xbd318318	-0.04333791
61	0x3d5b1774	0.053489164
62	0x3d0e6124	0.03476061
63	0xbd6a0f00	-0.05714321
64	0xbd9cf24b	-0.07663401
65	0x3d053c64	0.032528296
66	0x3d1d7014	0.038436964
67	0xbd134da8	-0.03596273
68	0x3d8f1254	0.06985918
69	0x3d66caec	0.056345865
70	0x3d049f8c	0.03237872
71	0x3d7c9a20	0.061670423
72	0x3c4ee670	0.012628183
73	0xbd6347ee	-0.05548852
74	0x3d3a5870	0.045494497
75	0xbd5173f4	-0.051135972
76	0x3d856280	0.06512928
77	0x3db09558	0.08622235
78	0xbc75c548	-0.015000649
79	0x3cb41f58	0.021987602
80	0xbdb667a1	-0.089064844
81	0xbb32b9e0	-0.0027271435
82	0xbd5197c8	-0.05117014
83	0x3d379924	0.04482378
84	0x3d90519e	0.07046817
85	0x3ca31e6c	0.019911967
86	0xbdc54d21	-0.09633852
87	0xbd05f702	-0.032706268
88	0x3db8c820	0.09022546
89	0x3c9e92f0	0.019357175
90	0x3d39b550	0.04533893
91	0xbda2dc7b	-0.079522096
92	0x3d3c7e68	0.046018988
93	0x3d06d1cc	0.03291492
94	0x3cd2b5f8	0.025721535
95	0x3dc895ce	0.09794198
96	0x3d0c3e20	0.034238935
97	0x3a655000	0.00087475777
98	0xbb93edd0	-0.0045144334
99	0xbd588045	-0.052856702
100	0xbbdd8300	-0.006760001
101	0x3c096000	0.008384705
102	0xbc411698	-0.011785172
103	0xbda55269	-0.08072359
104	0xbc8eb8b8	-0.017422065
105	0x3dc8d9e4	0.09807184
106	0xbc232d38	-0.009959511
107	0x3db12be2	0.08650948
108	0x3d0ece78	0.034864873
109	0xbda92a5d	-0.08260033
110	0x3c539040	0.01291281
111	0x3add6b80	0.0016892999
112	0x3dc4bdb4	0.096064955
113	0x3cd0e278	0.025498614
114	0xbd8cada1	-0.068690546
115	0x3dcc3e5e	0.09972833
116	0xbdab7511	-0.08371938
117	0xbcc19d64	-0.02363462
118	0x3db01a2a	0.085987404
119	0x3bea6d50	0.0071541443
120	0x3d16fbe4	0.036861315
121	0x3dc30e02	0.09524156
122	0xbdc719d8	-0.09721726
123	0xbd231a54	-0.03982003
124	0xbdc02677	-0.093823366
125	0xbd95c2fd	-0.07312582
126	0xbdae4f94	-0.08511272
127	0xbd742c05	-0.059612293
128	0xbd7d4aec	-0.06183903
129	0x3dcf4d46	0.101221606
130	0x3dcf4948	0.10121399
131	0x3d71bbac	0.05901687
132	0x3dbe56c6	0.092938945
133	0x3aa65ec0	0.0012693033
134	0x3d3d4f54	0.04621823
135	0xbcfa85f8	-0.03058146
136	0xbc1b3898	-0.009473942
137	0xbca5d8c0	-0.020244956
138	0x3db58286	0.08862786
139	0xbd6bc8c8	-0.057564527
140	0x3cc75758	0.024333641
141	0x3d9234d4	0.071389824
142	0xbda96074	-0.0827035
143	0xbd5b2bb7	-0.053508487
144	0xbd4a9002	-0.049453743
145	0x3d204bf0	0.03913492
146	0x3d0df968	0.03466168
147	0xbcdd4e48	-0.027014866
148	0xbdce96ad	-0.10087333
149	0x3d67f910	0.05663401
150	0x3da4375a	0.0801837
151	0x3d6f0938	0.0583584
152	0x3d239af4	0.039942697
153	0xbc93fd70	-0.018065184
154	0x3dd2b07e	0.102875695
155	0x3c951354	0.018197693
156	0x3da1b0d0	0.078950524
157	0x3c369998	0.011145018
158	0xbd50334e	-0.050830178
159	0x3d8eb368	0.06967813
160	0x3d89856c	0.06714901
161	0xbd6869b0	-0.056741416
162	0x3d9e7b4c	0.07738361
163	0x3ccba258	0.024857685
164	0xbc3c2720	-0.0114839375
165	0xbdbdb670	-0.09263313
166	0xbd1bfdd2	-0.03808386
167	0x3a934880	0.0011236817
168	0xbdb4cbed	-0.08827958
169	0xbdb52fd1	-0.08847011
170	0xbda62949	-0.08113343
171	0x3cf7c740	0.030246377
172	0x3d819f1a	0.06329174
173	0xbc2185e0	-0.009858578
174	0xbdd1e613	-0.10248961
175	0xbd4d9db0	-0.05019921
176	0x3c90f288	0.017693773
177	0xbd9d523a	-0.07681699
178	0xbd9e3c54	-0.077263504
179	0x3c805ff8	0.015670761
180	0xbd233014	-0.039840773
181	0x3dc6f69e	0.09715007
182	0xbd52a33e	-0.05142521
183	0xbdc224be	-0.09479664
184	0xbcc6c934	-0.024265863
185	0x3c9e9418	0.019357726
186	0xbd6ac976	-0.057321034
187	0x3db0533e	0.08609627
188	0xbd97e26c	-0.074162334
189	0xbc093048	-0.008373328
190	0x3db54428	0.088508904
191	0xbd19c52a	-0.037541546
192	0xbdc77a78	-0.09740156
193	0x3c3c71c8	0.011501737
194	0x3dd2fd0e	0.103021726
195	0xbca7f034	-0.02050028
196	0xbda75f5c	-0.08172485
197	0xbbcfde10	-0.0063436106
198	0x3cd76ed8	0.026297972
199	0x3da6385a	0.08116217
200	0xbda43d36	-0.080194876
201	0x3d0b7ff4	0.034057572
202	0xbdcd36df	-0.100202315
203	0x3d6415e0	0.055684924
204	0xbdd4d860	-0.10392833
205	0xbdb68b74	-0.08913317
206	0xbdb47eec	-0.08813271
207	0xbd57e90f	-0.052712496
208	0xbdcfab50	-0.10140097
209	0xbd61ce0b	-0.05512814
210	0x3d300418	0.042972654
211	0x3db521aa	0.088443115
212	0x3dc8615a	0.09784193
213	0x3da04a46	0.078266665
214	0x3d951b5e	0.072806105
215	0xbdb6bf6e	-0.08923231
216	0xbc980af8	-0.018559918
217	0xbc336958	-0.010950409
218	0x3b0bd600	0.002133727
219	0xbd49e0a5	-0.049286503
220	0xbda6db36	-0.0814728
221	0x3da90798	0.082534015
222	0xbdbe85a5	-0.093028344
223	0xbda22d2b	-0.07918771
224	0x3d84b36c	0.064795345
225	0x3bfd2db0	0.0077263936
226	0x3c0fba58	0.008772455
227	0xbcfcc1ec	-0.030854188
228	0xbd0aa2be	-0.03384661
229	0x3dc2571c	0.09489271
230	0x3dadc2b4	0.08484402
231	0xbc4d6f78	-0.012538783
232	0xbda25ce0	-0.07927871
233	0x3afe3280	0.0019393712
234	0xbd5fe375	-0.05466028
235	0xbd657ede	-0.056029193
236	0x3d136ff8	0.035995454
237	0x3dd16674	0.102246195
238	0xbd195590	-0.037435114
239	0xbb2c69e0	-0.0026308224
240	0x3dc67f72	0.09692277
241	0x3dcabb72	0.098990336
242	0x3c95b2ec	0.018273793
243	0xbd4a17a2	-0.049338944
244	0x3d696210	0.056978285
245	0xbca4ed2c	-0.020132624
246	0xbdbe5e2a	-0.09295304
247	0x3d6325a4	0.05545582
248	0xbd565fde	-0.05233752
249	0x3dc909be	0.09816311
250	0xbcda0aa8	-0.02661641
251	0x3d034c80	0.032055378
252	0x3c3475c8	0.011014409
253	0x3da2b6f6	0.07945053
254	0x3d61cf90	0.055129588
255	0xbc7df3c0	-0.015500009

arith.constant4 f4 [120]
0	0x00000000	0.0
1	0x00000000	0.0
2	0x00000000	0.0
3	0x00000000	0.0
4	0x00000000	0.0
5	0x00000000	0.0
6	0x00000000	0.0
7	0x00000000	0.0
8	0x00000000	0.0
9	0x00000000	0.0
10	0x00000000	0.0
11	0x00000000	0.0
12	0x00000000	0.0
13	0x00000000	0.0
14	0x00000000	0.0
15	0x00000000	0.0
16	0x00000000	0.0
17	0x00000000	0.0
18	0x00000000	0.0
19	0x00000000	0.0
20	0x00000000	0.0
21	0x00000000	0.0
22	0x00000000	0.0
23	0x00000000	0.0
24	0x00000000	0.0
25	0x00000000	0.0
26	0x00000000	0.0
27	0x00000000	0.0
28	0x00000000	0.0
29	0x00000000	0.0
30	0x00000000	0.0
31	0x00000000	0.0
32	0x00000000	0.0
33	0x00000000	0.0
34	0x00000000	0.0
35	0x00000000	0.0
36	0x00000000	0.0
37	0x00000000	0.0
38	0x00000000	0.0
39	0x00000000	0.0
40	0x00000000	0.0
41	0x00000000	0.0
42	0x00000000	0.0
43	0x00000000	0.0
44	0x00000000	0.0
45	0x00000000	0.0
46	0x00000000	0.0
47	0x00000000	0.0
48	0x00000000	0.0
49	0x00000000	0.0
50	0x00000000	0.0
51	0x00000000	0.0
52	0x00000000	0.0
53	0x00000000	0.0
54	0x00000000	0.0
55	0x00000000	0.0
56	0x00000000	0.0
57	0x00000000	0.0
58	0x00000000	0.0
59	0x00000000	0.0
60	0x00000000	0.0
61	0x00000000	0.0
62	0x00000000	0.0
63	0x00000000	0.0
64	0x00000000	0.0
65	0x00000000	0.0
66	0x00000000	0.0
67	0x00000000	0.0
68	0x00000000	0.0
69	0x00000000	0.0
70	0x00000000	0.0
71	0x00000000	0.0
72	0x00000000	0.0
73	0x00000000	0.0
74	0x00000000	0.0
75	0x00000000	0.0
76	0x00000000	0.0
77	0x00000000	0.0
78	0x00000000	0.0
79	0x00000000	0.0
80	0x00000000	0.0
81	0x00000000	0.0
82	0x00000000	0.0
83	0x00000000	0.0
84	0x00000000	0.0
85	0x00000000	0.0
86	0x00000000	0.0
87	0x00000000	0.0
88	0x00000000	0.0
89	0x00000000	0.0
90	0x00000000	0.0
91	0x00000000	0.0
92	0x00000000	0.0
93	0x00000000	0.0
94	0x00000000	0.0
95	0x00000000	0.0
96	0x00000000	0.0
97	0x00000000	0.0
98	0x00000000	0.0
99	0x00000000	0.0
100	0x00000000	0.0
101	0x00000000	0.0
102	0x00000000	0.0
103	0x00000000	0.0
104	0x00000000	0.0
105	0x00000000	0.0
106	0x00000000	0.0
107	0x00000000	0.0
108	0x00000000	0.0
109	0x00000000	0.0
110	0x00000000	0.0
111	0x00000000	0.0
112	0x00000000	0.0
113	0x00000000	0.0
114	0x00000000	0.0
115	0x00000000	0.0
116	0x00000000	0.0
117	0x00000000	0.0
118	0x00000000	0.0
119	0x00000000	0.0

arith.constant5 f4 [1600, 120]
0	0xbc33f730	-0.010984227
1	0x3d1dde64	0.038542166
2	0xbba59f80	-0.0050544143
3	0x3d41dd20	0.04733002
4	0xbb707f60	-0.0036697015
5	0x3d2be63e	0.041967623
6	0x3c8d9a60	0.017285526
7	0x3d1b57b0	0.037925422
8	0x3c285bb0	0.010275766
9	0x3bf15a50	0.0073655024
10	0x39a84880	0.00032097474
11	0x3d1146ea	0.03546802
12	0xbd4dc9ea	-0.05024139
13	0x3c4938f8	0.012281649
14	0x3d2ba420	0.04190457
15	0x3d1abb64	0.037776366
16	0xbcd246f6	-0.025668602
17	0x3d17db4c	0.037074372
18	0xbd20f1fe	-0.03929328
19	0xbd48a593	-0.04898603
20	0xbccebaf6	-0.025235634
21	0xbd0c5204	-0.034257904
22	0xbd2b2418	-0.04178247
23	0x3be6fd70	0.007049255
24	0x3cf36338	0.029710397
25	0xbc83cc40	-0.016088605
26	0xbbb81fd8	-0.0056190304
27	0x3c858160	0.016297042
28	0x3d44e304	0.04806806
29	0x3d5567d8	0.052100986
30	0x3d2c8c20	0.04212582
31	0xbbe02b18	-0.0068410747
32	0xbd30a402	-0.04312516
33	0x3cb748fc	0.022373669
34	0x3d71588e	0.058922343
35	0x3be5a060	0.0070076436
36	0xbc4bdb1c	-0.012442376
37	0x3d2d7e6a	0.042356886
38	0xbccdc0dc	-0.025116377
39	0xbcac7b0e	-0.02105477
40	0x3d5f27f2	0.054481454
41	0xbd0b5e16	-0.034025274
42	0x3c0ad9e8	0.008474804
43	0xbcd0f8ba	-0.025509227
44	0xbd275e78	-0.040861577
45	0x3b197ba0	0.0023419634
46	0xba616b40	-0.00085990503
47	0xb947f500	-0.00019069389
48	0x3cc3e040	0.023910642
49	0xbcbd2f9e	-0.023093995
50	0x3d2ef214	0.042711332
51	0xbc25885c	-0.010103311
52	0xbce4af7e	-0.027915712
53	0x3d2c835a	0.042117454
54	0x3c18c030	0.009323165
55	0xbb5fbf70	-0.0034141205
56	0xbd548d1f	-0.051892396
57	0x3c7f9680	0.015599847
58	0xbd2d4422	-0.042301305
59	0x3d484e72	0.048902936
60	0xbcde2768	-0.0271184
61	0x3d6b8b64	0.05750598
62	0xbd5277f3	-0.051383924
63	0xbd2d91ae	-0.04237526
64	0x3b7bb280	0.0038405955
65	0x3d4dcca6	0.050243996
66	0xbcc467a0	-0.023975194
67	0x3cee3b9c	0.029081158
68	0x3d41022e	0.04712122
69	0xbd11abb4	-0.03556414
70	0x3d4f23fe	0.050571434
71	0x3d48ac8c	0.04899268
72	0xbd2d5fce	-0.042327695
73	0x3d4a909e	0.049454324
74	0x3aa48100	0.0012550652
75	0x3b3f1e20	0.0029162243
76	0x3d025d38	0.03182718
77	0x3cee8a48	0.029118672
78	0xbcd491d6	-0.025948446
79	0x3caad64c	0.020854138
80	0x3d6376d4	0.055533245
81	0x3d3a8162	0.045533545
82	0xbcd32092	-0.025772367
83	0xbca740f6	-0.020416718
84	0x3d0b222a	0.03396813
85	0x3d695076	0.0569615
86	0xbd219e1d	-0.03945743
87	0xbd47542a	-0.04866425
88	0xbc1084e4	-0.008820746
89	0xbcb1865e	-0.021670517
90	0xbd7126d8	-0.058874935
91	0x3cd296fc	0.02570676
92	0xbd0fbe4c	-0.03509359
93	0x3c9f3228	0.019433096
94	0x3cf077b0	0.029353946
95	0xbcb88008	-0.022521988
96	0xbc2f349c	-0.010693695
97	0x3caf7930	0.021420091
98	0xbc889746	-0.016673695
99	0x3b999c20	0.004687801
100	0x3d00dce2	0.03146065
101	0x3d711054	0.058853462
102	0xbcbe2ff2	-0.023216221
103	0xbd5a6c5a	-0.05332599
104	0xbd48bc85	-0.04900791
105	0xbc648830	-0.013948485
106	0xbd35bd9d	-0.044370282
107	0x3d058456	0.03259691
108	0xbb5ba650	-0.0033515878
109	0xbd2807b2	-0.041022964
110	0x3d4031ce	0.046922497
111	0x3d1433e6	0.036182307
112	0x3cc1fc3c	0.023679845
113	0xbb49f740	-0.0030817538
114	0x3c2336b8	0.009961776
115	0xbd3646f3	-0.044501256
116	0xbb31da80	-0.0027138293
117	0xbcc27cfe	-0.023741242
118	0xbd616b20	-0.055033803
119	0xbc859e04	-0.0163107
120	0xba25af40	-0.0006320365
121	0xbb4e2d10	-0.0031459965
122	0xbd1e3191	-0.03862149
123	0xbd6a2887	-0.057167556
124	0x3d37297c	0.044717297
125	0x3c0dd920	0.008657724
126	0xbd39da85	-0.045374412
127	0x3d11697e	0.035500996
128	0xbce79ae6	-0.028272104
129	0xbbdd4198	-0.006752204
130	0xbced3b6e	-0.028959002
131	0x3c9cd494	0.019144334
132	0x3b1579e0	0.002280824
133	0xbca4a020	-0.020095885
134	0x3cd2d480	0.025736094
135	0xbc9885cc	-0.018618487
136	0xbd63ff2d	-0.055663276
137	0x3d53d974	0.05172105
138	0xbce7423f	-0.02822983
139	0x3ce81370	0.028329581
140	0xbc328a88	-0.010897286
141	0x3c269878	0.010168187
142	0xbc4344a0	-0.011918217
143	0x3bd680f0	0.0065461323
144	0x3d4c42a8	0.049868256
145	0x3ba25f10	0.00495518
146	0x3d28f6a6	0.041250847
147	0xbd19017d	-0.037354935
148	0x3cbae3bc	0.02281367
149	0xbd1f5358	-0.038897842
150	0xbc6239ac	-0.013807695
151	0xbd0ddbcc	-0.034633443
152	0xbc637ef0	-0.013885245
153	0x3d105464	0.03523673
154	0x3c8a06bc	0.016848914
155	0x3ca2de98	0.019881532
156	0xbc15f31c	-0.0091522
157	0xbd13e911	-0.03611094
158	0xb9e4a500	-0.00043610483
159	0x3a85d0c0	0.0010209307
160	0x3d2afa9e	0.041742913
161	0xbb981d28	-0.0046421476
162	0xba8af600	-0.0010601878
163	0xbb4db580	-0.00313887
164	0xbc9bd9ce	-0.019024756
165	0x3d4e45dc	0.05035959
166	0xbc2676e8	-0.010160185
167	0x3d6e2afc	0.05814646
168	0x3c824edc	0.015906744
169	0xbd214fc4	-0.03938271
170	0xbd2e449c	-0.0425459
171	0xbd601f2d	-0.05471723
172	0x3d330572	0.043706365
173	0xbd61a6ac	-0.05509059
174	0x3c979d08	0.018507496
175	0x3c0eb2a8	0.008709587
176	0x3d39458c	0.04523234
177	0x3d4a01bc	0.04931806
178	0xbc0c79d4	-0.008573968
179	0xbd6ff38e	-0.05858188
180	0x3c315ec8	0.01082582
181	0xbc9af5bc	-0.018916003
182	0x3d44b9ce	0.04802876
183	0xbd195aa1	-0.037439946
184	0x3cae1c90	0.021253854
185	0xbd523a0e	-0.051324897
186	0x3cea3960	0.028591812
187	0x3d13867a	0.03601692
188	0xbd52f504	-0.051503196
189	0x3d451eac	0.048124954
190	0x3bd54e50	0.0065095797
191	0xbd0bb499	-0.03410778
192	0x39fce000	0.0004823208
193	0x3cd847c4	0.026401408
194	0x3c84e848	0.016224042
195	0xb90dde00	-0.0001352951
196	0xbcf15719	-0.029460477
197	0xbd288988	-0.041146785
198	0x3ce911f0	0.028450936
199	0x3aa7df40	0.0012807623
200	0xbd20e1c4	-0.039277807
201	0xbd4f29d2	-0.050576992
202	0xbceefd6d	-0.029173577
203	0xbc3fa63c	-0.011697348
204	0x3ce3aedc	0.02779334
205	0xbc1c6f4c	-0.00954802
206	0x3d69a18e	0.057038836
207	0x3d40b0e2	0.04704369
208	0xbd3b9936	-0.04580041
209	0xbd4a5ef6	-0.049406968
210	0x3d4de17a	0.05026386
211	0xbd505f5a	-0.050872184
212	0xbd61c10f	-0.055115756
213	0xbb2534c0	-0.0025208443
214	0xbd0c3694	-0.034231737
215	0xbd412bb3	-0.047160815
216	0xbd438ace	-0.047739796
217	0xbd58bb96	-0.05291327
218	0x3c0a6310	0.00844647
219	0x3a2949c0	0.0006457828
220	0xbc62d2c4	-0.013844196
221	0xbd46f67e	-0.048574917
222	0xbcaad77a	-0.0208547
223	0xbcb55594	-0.022135533
224	0x3c7e0620	0.01550439
225	0xbcd65200	-0.026162148
226	0xbb53c1e0	-0.0032311603
227	0x3c7595e8	0.014989354
228	0xbbd408c0	-0.0064707696
229	0xbc789038	-0.015171103
230	0xbd364434	-0.044498637
231	0x3c320bc8	0.010867067
232	0x3d3fc1d2	0.0468157
233	0x3bffaa50	0.0078022853
234	0x3b96c1c0	0.0046007335
235	0x3ceb7fc8	0.028747454
236	0xbd21c4c1	-0.03949428
237	0x3d63eb2a	0.05564419
238	0x3cbdbdb0	0.02316174
239	0xbd17ab6a	-0.037028708
240	0xbd3b7144	-0.045762315
241	0xbd013b76	-0.031550847
242	0x3d478a12	0.04871566
243	0xbb2220d0	-0.0024738796
244	0x3bf849b0	0.0075771436
245	0xbd343d56	-0.044003807
246	0x3d610520	0.05493653
247	0x3b8be1f0	0.004268877
248	0x3d3367a2	0.043800004
249	0xbbf7e5e0	-0.007565245
250	0xbd3075c0	-0.043081045
251	0xbcd84f2c	-0.02640494
252	0xbd5fe64d	-0.05466299
253	0xbd416964	-0.04721965
254	0xbc069530	-0.00821428
255	0xbca631e6	-0.020287465

arith.constant6 f4 [84]
0	0x00000000	0.0
1	0x00000000	0.0
2	0x00000000	0.0
3	0x00000000	0.0
4	0x00000000	0.0
5	0x00000000	0.0
6	0x00000000	0.0
7	0x00000000	0.0
8	0x00000000	0.0
9	0x00000000	0.0
10	0x00000000	0.0
11	0x00000000	0.0
12	0x00000000	0.0
13	0x00000000	0.0
14	0x00000000	0.0
15	0x00000000	0.0
16	0x00000000	0.0
17	0x00000000	0.0
18	0x00000000	0.0
19	0x00000000	0.0
20	0x00000000	0.0
21	0x00000000	0.0
22	0x00000000	0.0
23	0x00000000	0.0
24	0x00000000	0.0
25	0x00000000	0.0
26	0x00000000	0.0
27	0x00000000	0.0
28	0x00000000	0.0
29	0x00000000	0.0
30	0x00000000	0.0
31	0x00000000	0.0
32	0x00000000	0.0
33	0x00000000	0.0
34	0x00000000	0.0
35	0x00000000	0.0
36	0x00000000	0.0
37	0x00000000	0.0
38	0x00000000	0.0
39	0x00000000	0.0
40	0x00000000	0.0
41	0x00000000	0.0
42	0x00000000	0.0
43	0x00000000	0.0
44	0x00000000	0.0
45	0x00000000	0.0
46	0x00000000	0.0
47	0x00000000	0.0
48	0x00000000	0.0
49	0x00000000	0.0
50	0x00000000	0.0
51	0x00000000	0.0
52	0x00000000	0.0
53	0x00000000	0.0
54	0x00000000	0.0
55	0x00000000	0.0
56	0x00000000	0.0
57	0x00000000	0.0
58	0x00000000	0.0
59	0x00000000	0.0
60	0x00000000	0.0
61	0x00000000	0.0
62	0x00000000	0.0
63	0x00000000	0.0
64	0x00000000	0.0
65	0x00000000	0.0
66	0x00000000	0.0
67	0x00000000	0.0
68	0x00000000	0.0
69	0x00000000	0.0
70	0x00000000	0.0
71	0x00000000	0.0
72	0x00000000	0.0
73	0x00000000	0.0
74	0x00000000	0.0
75	0x00000000	0.0
76	0x00000000	0.0
77	0x00000000	0.0
78	0x00000000	0.0
79	0x00000000	0.0
80	0x00000000	0.0
81	0x00000000	0.0
82	0x00000000	0.0
83	0x00000000	0.0

arith.constant7 f4 [120, 84]
0	0x3def2af2	0.11678113
1	0xbdadc562	-0.084849134
2	0x3d6d3d44	0.057919756
3	0xbe2e9109	-0.17047514
4	0x3c324f40	0.0108831525
5	0x3d8f53ee	0.0699843
6	0x3dc7b7b2	0.09751834
7	0xbe257ba2	-0.16160443
8	0x3e0bcfd5	0.136535
9	0x3b885d40	0.004161507
10	0x3e260521	0.16212894
11	0xbd205434	-0.039142802
12	0xbe1b889f	-0.15188836
13	0xbdf9bcf0	-0.1219424
14	0x3df83c6e	0.12120901
15	0x3e10f7ed	0.14157076
16	0x3dfc613e	0.12323235
17	0x3b0a7c40	0.0021131188
18	0xbdf2a05f	-0.118469946
19	0x3e087063	0.13324122
20	0x3e277f85	0.16357239
21	0x3e137589	0.14400305
22	0x3c34c630	0.01103358
23	0x3de2e87a	0.11079498
24	0x3ce68530	0.02813968
25	0x3deb254e	0.11481725
26	0x3e22ca53	0.15897493
27	0xbe0a789b	-0.1352257
28	0xbd4ea55a	-0.05045066
29	0x3dd2705a	0.102753356
30	0xbe268836	-0.16262898
31	0x3e219acb	0.15781705
32	0xbe2edeb7	-0.17077146
33	0xbe26306a	-0.16229406
34	0xbd0d900c	-0.034561202
35	0xbe08bb89	-0.13352789
36	0x3dced172	0.10098542
37	0x3e23eeef	0.16009115
38	0xbc46a5d0	-0.012124494
39	0xbdbe14fc	-0.09281346
40	0x3d9a4aa8	0.07533771
41	0x3db188fe	0.08668707
42	0xbd978718	-0.07398814
43	0x3ceea820	0.029132903
44	0xbdb45b10	-0.08806431
45	0x3df0f1ee	0.117648944
46	0x3e18cedf	0.14922665
47	0x3d5643d0	0.052310765
48	0xbcd607d0	-0.026126772
49	0xbe27604d	-0.1634533
50	0x3b1951c0	0.0023394674
51	0x3b125b00	0.0022332072
52	0x3de8adaa	0.11361249
53	0x3e28360d	0.16426869
54	0xbdcfba21	-0.10142923
55	0xbd60a3ae	-0.054843597
56	0x3dc659aa	0.09685071
57	0x3e253079	0.16131772
58	0xb959b800	-0.00020763278
59	0xbd27c8c4	-0.04096295
60	0x3e1df1e3	0.15424304
61	0x3dd52fa2	0.10409476
62	0xbe2ef5d6	-0.17085966
63	0xbe239d8c	-0.15978068
64	0xbd1bea48	-0.038065225
65	0x3e22a34d	0.15882607
66	0x3d1dd894	0.038536623
67	0x3e157811	0.14596583
68	0x3e161bbb	0.14659016
69	0xbd668104	-0.056275383
70	0xbca6c0a8	-0.020355538
71	0x3db3e31e	0.087835535
72	0x3e1251b3	0.14288978
73	0x3e013fb9	0.12621965
74	0x3c378060	0.011200041
75	0xbd0283a8	-0.03186384
76	0xbe279ec4	-0.16369158
77	0x3cf6f748	0.03014721
78	0x3cac3ed8	0.02102606
79	0xbd2c0b68	-0.042003065
80	0xbd7d4db6	-0.06184169
81	0xbddc0318	-0.107427776
82	0x3e041687	0.12899218
83	0xbd64c9ba	-0.055856444
84	0x3e27c681	0.16384317
85	0xbe1016c8	-0.1407119
86	0x3dd24b0e	0.10268222
87	0xbe1074ab	-0.14107005
88	0x3c782c00	0.015147209
89	0xbc5d3610	-0.013501659
90	0x3aed1080	0.0018086582
91	0x3dbe72f6	0.09299271
92	0xbdfe2904	-0.12410167
93	0xbe13ecef	-0.14445852
94	0x3cbb1140	0.022835374
95	0xbb126680	-0.0022338927
96	0x3e1cd54f	0.15315746
97	0x3d96fd3a	0.07372518
98	0x3d02d0e0	0.03193748
99	0x3e28b289	0.16474356
100	0xbe294fbd	-0.16534324
101	0x3e07aa89	0.13248648
102	0xbdb80c0b	-0.08986672
103	0x3df49f3e	0.119444355
104	0x3d47eba4	0.04880871
105	0x3df765c2	0.12079956
106	0xbdbfa387	-0.09357362
107	0xbdd54c09	-0.10414893
108	0x3de0351a	0.10947628
109	0xbdf7c3f5	-0.12097923
110	0x3cd01728	0.025401667
111	0x3b9d37a0	0.004797891
112	0x3db63d9a	0.08898468
113	0xbdede260	-0.11615443
114	0x3e066593	0.13124685
115	0x3df45e4a	0.11932047
116	0xbd3afe94	-0.04565294
117	0xbdb5863e	-0.08863495
118	0xbdae5093	-0.08511462
119	0x3e0de4cb	0.13856809
120	0x3d838614	0.06422058
121	0xbd9abed8	-0.07555932
122	0x3de3df4e	0.11126576
123	0xbcf39538	-0.029734239
124	0x3d09ee04	0.033674255
125	0xbd63d236	-0.055620395
126	0xbe1f28c3	-0.15542893
127	0x3e01f3c1	0.12690641
128	0x3da191b6	0.0788912
129	0x3e2dbbdb	0.16966192
130	0x3dd74bea	0.10512526
131	0x3cb56d10	0.022146732
132	0x3dbb484a	0.091446474
133	0xbdbf2034	-0.09332314
134	0xbe19c493	-0.15016393
135	0xbe1d3e65	-0.15355833
136	0x3da63e9e	0.08117412
137	0x3d958518	0.07300776
138	0xbdd1ecb6	-0.10250227
139	0x3df1ad2a	0.118006065
140	0x3dfe516e	0.12417875
141	0x3df53472	0.11972894
142	0xbd0964d0	-0.033543408
143	0x3c2af280	0.010433793
144	0x3e268aa5	0.16263826
145	0x3d8fb928	0.070177376
146	0x3dc9d302	0.098547
147	0x3e01b6cd	0.12667389
148	0x3d11fc8c	0.035641238
149	0xbd2beb08	-0.04197219
150	0x3dede2c2	0.11615516
151	0xbd7f53fc	-0.062335953
152	0x3e2acf3d	0.16680618
153	0x3e2da493	0.16957311
154	0xbc0c6260	-0.008568376
155	0x3da32e0a	0.07967766
156	0x3d7d3b30	0.061824024
157	0x3dbc025a	0.09180136
158	0x3d7369c0	0.059427023
159	0xbd77074a	-0.060309686
160	0x3e007927	0.12546216
161	0xbd4ea078	-0.050446004
162	0xbdcd6963	-0.100298665
163	0xbda94adf	-0.08266234
164	0x3dd8f096	0.10592763
165	0x3dfefb26	0.124502465
166	0xbdf4d8ac	-0.119553894
167	0x3df8af16	0.1214277
168	0xbdce52c7	-0.10074382
169	0x3d3e5568	0.04646817
170	0x3d33261c	0.043737516
171	0x3d84ded6	0.06487815
172	0x3d5a4764	0.05329074
173	0xbe067e66	-0.13134155
174	0xbd3ab564	-0.045583144
175	0x3ddb792a	0.107164696
176	0xbe0815c3	-0.13289551
177	0x3ce9dfa0	0.028549016
178	0x3d50dfec	0.0509948
179	0xbc9b8058	-0.018982098
180	0x3da061f0	0.0783118
181	0x3ddfd5d6	0.10929458
182	0xbb945800	-0.004527092
183	0x3e26e5df	0.16298626
184	0x3b9720c0	0.0046120584
185	0xbde0d666	-0.10978393
186	0xbd8bd78f	-0.06828224
187	0xbdcae57f	-0.09907054
188	0x3d893f5e	0.067015395
189	0xbe080ab6	-0.13285336
190	0xbdee1c10	-0.11626446
191	0x3d4ddcc0	0.05025935
192	0x3c0f2e40	0.008739054
193	0x3df753c6	0.120765254
194	0x3bc5e140	0.006038815
195	0x3c592fd0	0.013256028
196	0x3e0e104b	0.13873403
197	0x3d931886	0.07182412
198	0x3db473f2	0.08811177
199	0x3e235261	0.15949394
200	0x3e24513f	0.16046618
201	0xbd130298	-0.035891145
202	0xbc860250	-0.016358525
203	0x3cd242f8	0.025666699
204	0x3e13370f	0.14376472
205	0xbdb76d20	-0.08956361
206	0xbc4aafc0	-0.012371004
207	0x3e0d3aed	0.1379201
208	0xbd9d265a	-0.076733306
209	0x3e16c9d3	0.14725427
210	0xbe1a5755	-0.15072377
211	0xbdd2e1e9	-0.10296995
212	0xbe0cfd7f	-0.13768576
213	0xbd9b1200	-0.075717926
214	0x3d13e04c	0.036102578
215	0xbcdbfe10	-0.026854545
216	0x3e21a347	0.15784942
217	0x3d8c86e4	0.06861666
218	0x3d559538	0.05214426
219	0xbdc718dd	-0.09721539
220	0x3e260879	0.1621417
221	0x3d1fc628	0.039007336
222	0x3d9ec2a8	0.077519715
223	0xbe260f22	-0.1621671
224	0x3dfb25f2	0.12263097
225	0x3d8915b0	0.0669359
226	0xbe038798	-0.12844694
227	0x3dc178ae	0.09446846
228	0xbdb2d39e	-0.08731769
229	0x3df2061a	0.1181757
230	0x3cdd5228	0.027016714
231	0x3dbe0e1a	0.092800334
232	0xbda8f099	-0.08249015
233	0xbba03800	-0.004889488
234	0x3cbffff0	0.02343747
235	0x3df34cf6	0.118799135
236	0xbe2f587d	-0.171236
237	0xbddb7f51	-0.10717643
238	0xbde1e3dd	-0.110297896
239	0x396e0c00	0.00022701919
240	0x3b0da440	0.0021612793
241	0xbdabb000	-0.08383179
242	0x3d0a52d0	0.033770382
243	0xbe15d249	-0.14630999
244	0xbe05fd2c	-0.13084859
245	0xbd57edc4	-0.052716985
246	0xbb886aa0	-0.0041631013
247	0xbc631a90	-0.013861313
248	0x3d74bedc	0.05975233
249	0xbd519366	-0.05116596
250	0xbdbe1f4c	-0.09283313
251	0x3dc2b9d6	0.09508102
252	0xbcf64db0	-0.030066341
253	0xbe1dabdd	-0.15397592
254	0x3cba8510	0.022768527
255	0xbe082aec	-0.13297623

arith.constant8 f4 [10]
0	0x00000000	0.0
1	0x00000000	0.0
2	0x00000000	0.0
3	0x00000000	0.0
4	0x00000000	0.0
5	0x00000000	0.0
6	0x00000000	0.0
7	0x00000000	0.0
8	0x00000000	0.0
9	0x00000000	0.0

arith.constant9 f4 [84, 10]
0	0xbd36456c	-0.0444998
1	0xbe6695d2	-0.2251809
2	0xbd60b9cc	-0.05486469
3	0xbe75b357	-0.23994194
4	0xbd335e44	-0.04379107
5	0xbe01a3d3	-0.1266015
6	0x3d9cc200	0.0765419
7	0x3d84361c	0.06455633
8	0xbd393174	-0.045213178
9	0xbd35a868	-0.044350058
10	0xbe6a35da	-0.22872105
11	0xbc4b3c10	-0.012404457
12	0xbddf9452	-0.10916962
13	0xbcbdaa10	-0.023152381
14	0x3e0de5f8	0.13857257
15	0xbe740fea	-0.23834196
16	0xbe52015a	-0.20508328
17	0xbb6cc2c0	-0.0036126822
18	0x3e1d9de6	0.15392265
19	0xbdfc462e	-0.12318073
20	0xbdcbb8be	-0.09947346
21	0x3defbc38	0.11705822
22	0xbd2f17f0	-0.042747438
23	0xbde7f3f4	-0.11325827
24	0xbe61c079	-0.22046079
25	0xbd18eca4	-0.037335053
26	0x3d72b450	0.05925399
27	0x3d887224	0.066623956
28	0xbd722754	-0.059119537
29	0xbe2cf3da	-0.16889897
30	0x3e4bf922	0.19919255
31	0xbe1cb0b2	-0.15301779
32	0x3cfdc8f0	0.030979604
33	0xbe419a2a	-0.18906465
34	0xbe50c46d	-0.2038743
35	0x3dc53db8	0.096309125
36	0xbe24521b	-0.16046946
37	0xbe22046e	-0.15822002
38	0xbe00f021	-0.12591602
39	0x3d788638	0.060674876
40	0xbe47d73f	-0.19515704
41	0x3e7ec8ae	0.2488124
42	0xbd3efed0	-0.046629727
43	0x3e130bcc	0.14359969
44	0xbe35b0b3	-0.17743187
45	0x3dbe0a00	0.09279251
46	0xbe3179be	-0.17331597
47	0x3c193b40	0.009352505
48	0x3d97dc10	0.074150205
49	0x3da8dcd4	0.082452446
50	0xbe742864	-0.23843533
51	0xbe5f12aa	-0.21784464
52	0x3d364550	0.044499695
53	0xbe7a10ef	-0.24420522
54	0x3e3ad9e8	0.18247187
55	0x3dcf5308	0.10123259
56	0xbd8c26c4	-0.068433315
57	0x3e7f512a	0.24933305
58	0x3e3bc632	0.18337324
59	0xbcaaed98	-0.020865247
60	0xbe57bd66	-0.21068344
61	0x3df56f50	0.11984122
62	0xbe0a76be	-0.13521859
63	0x3aff1400	0.0019460917
64	0xbdefe7e6	-0.11714153
65	0xbdd7926a	-0.10525973
66	0xbe75dfc2	-0.24011138
67	0xbc2fdcf0	-0.010733828
68	0xbd9d4da0	-0.076808214
69	0xbe410fc6	-0.18853673
70	0xbe671322	-0.22565892
71	0x3db03804	0.08604434
72	0x3d7801d8	0.060548633
73	0xbdc7b1d2	-0.097507134
74	0x3b8de880	0.0043306947
75	0x3e0796c6	0.13241109
76	0x3e55f89c	0.20895618
77	0x3e0662bc	0.13123602
78	0x3e115f2a	0.14196458
79	0xbe23a710	-0.15981698
80	0x3db24f80	0.0870657
81	0xbd931542	-0.07181789
82	0xbd8c0bf4	-0.068382174
83	0x3d5d43d8	0.05401978
84	0x3c141900	0.009039164
85	0x3d0afcc8	0.033932477
86	0xbe2074ba	-0.15669528
87	0x3d448388	0.047977
88	0x3e5c79b0	0.21530795
89	0x3e306f58	0.17229974
90	0xbe4a22be	-0.19739816
91	0xbe1d4886	-0.15359697
92	0xbe4e8a55	-0.20169957
93	0x3e7040ec	0.23462266
94	0x3e31f91c	0.17380184
95	0xbd3d7ba4	-0.04626049
96	0xbd2978bc	-0.041374907
97	0xbdab0a32	-0.08351554
98	0x3e79e494	0.24403602
99	0x3c19f3c0	0.009396493
100	0x3c039340	0.008030713
101	0xbdcecefc	-0.10098073
102	0xbe7aba79	-0.24485196
103	0xbe526f76	-0.20550331
104	0x3dafa718	0.085767925
105	0x3c8c20a0	0.0171054
106	0xbc304690	-0.010759011
107	0xbe1a8e82	-0.15093425
108	0xbe52545d	-0.20539995
109	0xbe3ab3e7	-0.1823269
110	0xbdd70012	-0.1049806
111	0x3ddb8aa8	0.10719806
112	0xbbb588a0	-0.0055399686
113	0xbe0c7642	-0.13716987
114	0x3c3b1ce0	0.011420459
115	0xbcbbb188	-0.022911802
116	0x3e478f42	0.19488242
117	0xbe5ba9d2	-0.214515
118	0xbdd78240	-0.1052289
119	0xbdfe4568	-0.12415582
120	0xbe6c241e	-0.23060653
121	0xbe51a622	-0.20473531
122	0xbdfef16e	-0.12448393
123	0x3dba9398	0.091101825
124	0x3e016424	0.12635857
125	0x3d5fb6c8	0.054617673
126	0x3d922754	0.071364075
127	0x3deab69c	0.11460611
128	0x3d516fc0	0.051131964
129	0xbe49c870	-0.19705367
130	0xbe463315	-0.19355424
131	0xbe4aa983	-0.19791226
132	0xbe1438cf	-0.14474796
133	0xbde9c430	-0.11414373
134	0x3d1754a0	0.03694594
135	0x3d7ceee8	0.061751276
136	0x3d987c5c	0.07445595
137	0x3e708de0	0.23491621
138	0xbe4585f8	-0.19289386
139	0x3e092c5c	0.13395828
140	0xbdccaac0	-0.099935055
141	0x3e0ba5a6	0.13637409
142	0x3e45b602	0.19307712
143	0x3d14a0b0	0.036286056
144	0xbe1e71d2	-0.15473107
145	0xbd15fa1c	-0.036615476
146	0x3e0c4bcc	0.13700789
147	0x3e22a48c	0.15883082
148	0x3e0e066a	0.13869634
149	0x3de01ef4	0.10943404
150	0xbe32a958	-0.17447412
151	0xbe378b47	-0.17924224
152	0x3ab65b00	0.0013912618
153	0xbe7a8da9	-0.24468102
154	0xbe1d1e00	-0.15343475
155	0xbe1e26c9	-0.15444483
156	0x3dc70068	0.09716874
157	0x3e377b78	0.17918193
158	0xbe01459a	-0.12624207
159	0xbe6f0029	-0.23339905
160	0x3e735bb8	0.23765457
161	0xbc338bd0	-0.010958627
162	0xbd41944c	-0.047260568
163	0xbdd3b4ce	-0.1033722
164	0x3cb9fd50	0.022703797
165	0x3e735ee0	0.2376666
166	0x3d29ed98	0.041486353
167	0xbe14d526	-0.14534435
168	0x3e60ab9e	0.21940467
169	0xbe022f91	-0.12713458
170	0xbdcebcf4	-0.10094634
171	0x3ce4e290	0.027940065
172	0x3d92bde8	0.07165128
173	0x3bab9f80	0.0052375197
174	0xbe29bd72	-0.16576174
175	0xbe5a9b19	-0.21348228
176	0xbe16c4ae	-0.14723465
177	0xbe3365ba	-0.17519274
178	0x3e30237e	0.17201039
179	0xbe229666	-0.15877685
180	0xbe614e5f	-0.22002552
181	0xbce1d5c8	-0.02756776
182	0x3dbf09f0	0.09328067
183	0x3bfaac00	0.0076498985
184	0x3e4b931e	0.1988034
185	0xbdb503a8	-0.08838588
186	0xbe08dabe	-0.13364694
187	0x3d97998c	0.074023336
188	0xbd62a778	-0.055335492
189	0xbdaba812	-0.08381666
190	0xbe3e3053	-0.18573122
191	0x3e274082	0.16333202
192	0x3e205478	0.15657222
193	0xbd7f2850	-0.062294304
194	0x3d43a428	0.047763973
195	0x3e4d6a38	0.2006005
196	0x3e62ac38	0.22136009
197	0xbdb5d8ba	-0.08879228
198	0x3e33f418	0.17573583
199	0x3e153248	0.14569962
200	0xbd92bfd4	-0.071654946
201	0x3e46b784	0.19405943
202	0xbc6e3510	-0.014539018
203	0xbe807433	-0.25088653
204	0x3e210f96	0.15728602
205	0xbe7529a6	-0.23941669
206	0xbe7e7841	-0.2485056
207	0x3ae1c100	0.0017223656
208	0x3e7737fc	0.2414245
209	0x3e513728	0.20431197
210	0xbe6bbe8a	-0.23021904
211	0xbd76cc28	-0.060253292
212	0xbe34a982	-0.17642787
213	0xbe192406	-0.14955148
214	0x3d31bdd8	0.04339394
215	0xbe46d260	-0.19416189
216	0xbe06b514	-0.13155013
217	0xbdb560ea	-0.088563755
218	0x3e70cdd2	0.23516014
219	0xbe2a082e	-0.16604683
220	0xbe24b2b2	-0.16083792
221	0xbd2be050	-0.041961968
222	0x3e1bfaca	0.15232387
223	0xbd339944	-0.043847337
224	0xbd1182c4	-0.0355251
225	0xbd7f8854	-0.062385872
226	0x3e41d43e	0.1892862
227	0x3be81940	0.007083088
228	0xbe439c54	-0.19102603
229	0x3d96ef2c	0.07369837
230	0x3d60f3f8	0.054920167
231	0xbcbc7798	-0.023006245
232	0xbe419166	-0.18903121
233	0xbc2b5ca0	-0.010459095
234	0xbdffd796	-0.12492292
235	0xbd4f0bb8	-0.050548285
236	0xbdb1ce2c	-0.08681902
237	0x3e1d2206	0.1534501
238	0x3e30db42	0.1727114
239	0xbe161540	-0.14656544
240	0xbdbec754	-0.093153626
241	0xbcd2f808	-0.025753036
242	0xbdebae8c	-0.115079015
243	0xbdce729e	-0.10080455
244	0x3e7ee302	0.24891284
245	0xbe5f82aa	-0.21827188
246	0x3e7f6fd6	0.24945006
247	0xbd933464	-0.07187727
248	0x3dc672cc	0.096898645
249	0xbdb12ba2	-0.086509004
250	0xbe20a960	-0.15689611
251	0xbd1ac8c0	-0.037789106
252	0xbe7d5f3f	-0.24743365
253	0x3d881400	0.0664444
254	0x3abfd000	0.0014634132
255	0x3dd1d8c0	0.1024642
